…
prediction_head.0.bias:
  Shape: torch.Size([64])
  Mean: 0.002868
  Std: 0.051268
  Min: -0.085238
  Max: 0.084254
prediction_head.3.weight:
  Shape: torch.Size([1, 64])
  Mean: 0.011776
  Std: 0.072479
  Min: -0.122814
  Max: 0.123224
prediction_head.3.bias:
  Shape: torch.Size([1])
  Mean: 0.074907
  Std: nan
  Min: 0.074907
  Max: 0.074907
Starting training process...
Starting training process
Model architecture:
AdvancedPricePredictionModel(
  (lstm): EnhancedLSTM(
    (lstm_cells): ModuleList(
      (0): CustomLSTMCell(
        (dropout): Dropout(p=0.2, inplace=False)
        (layer_norm_1): LayerNorm((128,), eps=1e-05, elementwise_affine=True)
        (layer_norm_2): LayerNorm((128,), eps=1e-05, elementwise_affine=True)
        (gates): Linear(in_features=133, out_features=512, bias=True)
        (residual_proj): Linear(in_features=5, out_features=128, bias=True)
      )
      (1): CustomLSTMCell(
        (dropout): Dropout(p=0.2, inplace=False)
        (layer_norm_1): LayerNorm((128,), eps=1e-05, elementwise_affine=True)
        (layer_norm_2): LayerNorm((128,), eps=1e-05, elementwise_affine=True)
        (gates): Linear(in_features=256, out_features=512, bias=True)
      )
    )
    (attention): AttentionLayer(
      (attention): Sequential(
        (0): Linear(in_features=128, out_features=128, bias=True)
        (1): Tanh()
        (2): Linear(in_features=128, out_features=1, bias=True)
      )
    )
    (skip_connections): ModuleList(
      (0-1): 2 x Linear(in_features=5, out_features=128, bias=True)
    )
  )
  (prediction_head): Sequential(
    (0): Linear(in_features=128, out_features=64, bias=True)
    (1): ReLU()
    (2): Dropout(p=0.2, inplace=False)
    (3): Linear(in_features=64, out_features=1, bias=True)
  )
)
Training parameters: epochs=5, device=cpu
Optimizer: SSAOptimizer(pop_size=50, a=0.8, ST=0.6, diversity_weight=0.1, momentum=0.1)
Loss function: MSELoss()
Training batches: 104
Validation batches: 21

Starting Epoch [1/5]

First batch details:
Scaled predictions (first 3):
[[0.2595594 ]
 [0.09726315]
 [0.18745133]]
Scaled targets (first 3):
[-0.02173461 -0.06005812 -0.07876658]
…
