…
prediction_head.0.bias:
  Shape: torch.Size([64])
  Mean: 0.003204
  Std: 0.051393
  Min: -0.077404
  Max: 0.086960
prediction_head.3.weight:
  Shape: torch.Size([1, 64])
  Mean: -0.012709
  Std: 0.070504
  Min: -0.117533
  Max: 0.117175
prediction_head.3.bias:
  Shape: torch.Size([1])
  Mean: 0.058199
  Std: nan
  Min: 0.058199
  Max: 0.058199
Starting training process...
Starting training process
Model architecture:
AdvancedPricePredictionModel(
  (lstm): EnhancedLSTM(
    (lstm_cells): ModuleList(
      (0): CustomLSTMCell(
        (dropout): Dropout(p=0.2, inplace=False)
        (layer_norm_1): LayerNorm((128,), eps=1e-05, elementwise_affine=True)
        (layer_norm_2): LayerNorm((128,), eps=1e-05, elementwise_affine=True)
        (gates): Linear(in_features=133, out_features=512, bias=True)
        (residual_proj): Linear(in_features=5, out_features=128, bias=True)
      )
      (1): CustomLSTMCell(
        (dropout): Dropout(p=0.2, inplace=False)
        (layer_norm_1): LayerNorm((128,), eps=1e-05, elementwise_affine=True)
        (layer_norm_2): LayerNorm((128,), eps=1e-05, elementwise_affine=True)
        (gates): Linear(in_features=256, out_features=512, bias=True)
      )
    )
    (attention): AttentionLayer(
      (attention): Sequential(
        (0): Linear(in_features=128, out_features=128, bias=True)
        (1): Tanh()
        (2): Linear(in_features=128, out_features=1, bias=True)
      )
    )
    (skip_connections): ModuleList(
      (0-1): 2 x Linear(in_features=5, out_features=128, bias=True)
    )
  )
  (prediction_head): Sequential(
    (0): Linear(in_features=128, out_features=64, bias=True)
    (1): ReLU()
    (2): Dropout(p=0.2, inplace=False)
    (3): Linear(in_features=64, out_features=1, bias=True)
  )
)
Training parameters: epochs=5, device=cpu
Optimizer: SSAOptimizer(pop_size=50, a=0.8, ST=0.6, diversity_weight=0.1, momentum=0.1)
Loss function: MSELoss()
Training batches: 63
Validation batches: 12

Starting Epoch [1/5]

First batch details:
Scaled predictions (first 3):
[[-0.03748095]
 [-0.12463309]
 [-0.405652  ]]
Scaled targets (first 3):
[-0.08306571 -0.10827032  2.4842992 ]
…
