…
prediction_head.0.bias:
  Shape: torch.Size([64])
  Mean: -0.001306
  Std: 0.046137
  Min: -0.087191
  Max: 0.082959
prediction_head.3.weight:
  Shape: torch.Size([1, 64])
  Mean: 0.006325
  Std: 0.087258
  Min: -0.123044
  Max: 0.124509
prediction_head.3.bias:
  Shape: torch.Size([1])
  Mean: 0.076152
  Std: nan
  Min: 0.076152
  Max: 0.076152
Starting training process...
Starting training process
Model architecture:
AdvancedPricePredictionModel(
  (lstm): EnhancedLSTM(
    (lstm_cells): ModuleList(
      (0): CustomLSTMCell(
        (dropout): Dropout(p=0.2, inplace=False)
        (layer_norm_1): LayerNorm((128,), eps=1e-05, elementwise_affine=True)
        (layer_norm_2): LayerNorm((128,), eps=1e-05, elementwise_affine=True)
        (gates): Linear(in_features=133, out_features=512, bias=True)
        (residual_proj): Linear(in_features=5, out_features=128, bias=True)
      )
      (1): CustomLSTMCell(
        (dropout): Dropout(p=0.2, inplace=False)
        (layer_norm_1): LayerNorm((128,), eps=1e-05, elementwise_affine=True)
        (layer_norm_2): LayerNorm((128,), eps=1e-05, elementwise_affine=True)
        (gates): Linear(in_features=256, out_features=512, bias=True)
      )
    )
    (attention): AttentionLayer(
      (attention): Sequential(
        (0): Linear(in_features=128, out_features=128, bias=True)
        (1): Tanh()
        (2): Linear(in_features=128, out_features=1, bias=True)
      )
    )
    (skip_connections): ModuleList(
      (0-1): 2 x Linear(in_features=5, out_features=128, bias=True)
    )
  )
  (prediction_head): Sequential(
    (0): Linear(in_features=128, out_features=64, bias=True)
    (1): ReLU()
    (2): Dropout(p=0.2, inplace=False)
    (3): Linear(in_features=64, out_features=1, bias=True)
  )
)
Training parameters: epochs=5, device=cpu
Optimizer: SSAOptimizer(pop_size=50, a=0.8, ST=0.6, diversity_weight=0.1, momentum=0.1)
Loss function: MSELoss()
Training batches: 104
Validation batches: 21

Starting Epoch [1/5]

First batch details:
Scaled predictions (first 3):
[[ 0.17565995]
 [-0.05861621]
 [ 0.11268528]]
Scaled targets (first 3):
[-0.06782101  0.52662426  0.4689335 ]
…
