…
Feature indices: {'Volume': 0, 'Open': 1, 'High': 2, 'Low': 3, 'Close': 4}
Close price index: 4

=== Data Shapes ===
Training set shape: torch.Size([3316, 60, 5])
Validation set shape: torch.Size([663, 60, 5])
Test set shape: torch.Size([664, 60, 5])

=== Date Range ===
Start date: 2011-08-18
End date: 2024-10-30

=== Feature Alignment Verification ===
Feature alignment test - Close position: 4
Inverse transform test shape: (1, 5)
Model input size: 5
Starting training process...
Starting training process
Model architecture:
AdvancedPricePredictionModel(
  (lstm): EnhancedLSTM(
    (input_embedding): Linear(in_features=5, out_features=128, bias=True)
    (lstm_cells): ModuleList(
      (0-1): 2 x CustomLSTMCell(
        (dropout): Dropout(p=0.2, inplace=False)
        (layer_norm_1): LayerNorm((128,), eps=1e-05, elementwise_affine=True)
        (layer_norm_2): LayerNorm((128,), eps=1e-05, elementwise_affine=True)
        (gates): Linear(in_features=256, out_features=512, bias=True)
      )
    )
    (attention): AttentionLayer(
      (attention): Sequential(
        (0): Linear(in_features=128, out_features=128, bias=True)
        (1): Tanh()
        (2): Linear(in_features=128, out_features=1, bias=True)
      )
    )
    (positional_encoding): PositionalEncoding()
    (self_attention): MultiHeadSelfAttention(
      (q_linear): Linear(in_features=128, out_features=128, bias=True)
      (k_linear): Linear(in_features=128, out_features=128, bias=True)
      (v_linear): Linear(in_features=128, out_features=128, bias=True)
      (dropout): Dropout(p=0.1, inplace=False)
      (out): Linear(in_features=128, out_features=128, bias=True)
    )
    (glu): GatedLinearUnit(
      (linear): Linear(in_features=128, out_features=256, bias=True)
    )
    (temporal_conv): TemporalConvNet(
      (conv1): Conv1d(128, 128, kernel_size=(3,), stride=(1,), padding=(1,))
      (conv2): Conv1d(128, 128, kernel_size=(3,), stride=(1,), padding=(1,))
      (layer_norm): LayerNorm((128,), eps=1e-05, elementwise_affine=True)
    )
    (layer_norm): LayerNorm((128,), eps=1e-05, elementwise_affine=True)
    (skip_connections): ModuleList(
      (0-1): 2 x Linear(in_features=128, out_features=128, bias=True)
    )
  )
  (prediction_head): Sequential(
    (0): Linear(in_features=128, out_features=128, bias=True)
    (1): LayerNorm((128,), eps=1e-05, elementwise_affine=True)
    (2): ReLU()
    (3): Dropout(p=0.2, inplace=False)
    (4): Linear(in_features=128, out_features=64, bias=True)
    (5): ReLU()
    (6): Dropout(p=0.2, inplace=False)
    (7): Linear(in_features=64, out_features=1, bias=True)
  )
)
Training parameters: epochs=50, device=cpu
Optimizer: Adam (
Parameter Group 0
    amsgrad: False
    betas: (0.9, 0.999)
    capturable: False
    differentiable: False
    eps: 1e-08
    foreach: None
    fused: None
    lr: 0.001
    maximize: False
    weight_decay: 1e-05
)
Loss function: MSELoss()
Training batches: 104
Validation batches: 21

Starting Epoch [1/50]
…
