…
Training set shape: torch.Size([3312, 60, 5])
Validation set shape: torch.Size([659, 60, 5])
Test set shape: torch.Size([660, 60, 5])

=== Date Range ===
Start date: 2011-08-18
End date: 2024-10-30

=== Feature Alignment Verification ===
Feature alignment test - Close position: 4
Inverse transform test shape: (1, 5)
Prediction steps: 5
Model input size: 5
Starting training process...
Starting training process
Model architecture:
MultiStepPricePredictionModel(
  (lstm): EnhancedLSTM(
    (lstm_cells): ModuleList(
      (0): CustomLSTMCell(
        (dropout): Dropout(p=0.3, inplace=False)
        (layer_norm_1): LayerNorm((1024,), eps=1e-05, elementwise_affine=True)
        (layer_norm_2): LayerNorm((1024,), eps=1e-05, elementwise_affine=True)
        (gates): Linear(in_features=1029, out_features=4096, bias=True)
        (residual_proj): Linear(in_features=5, out_features=1024, bias=True)
      )
      (1-5): 5 x CustomLSTMCell(
        (dropout): Dropout(p=0.3, inplace=False)
        (layer_norm_1): LayerNorm((1024,), eps=1e-05, elementwise_affine=True)
        (layer_norm_2): LayerNorm((1024,), eps=1e-05, elementwise_affine=True)
        (gates): Linear(in_features=2048, out_features=4096, bias=True)
      )
    )
    (attention): AttentionLayer(
      (attention): Sequential(
        (0): Linear(in_features=1024, out_features=1024, bias=True)
        (1): Tanh()
        (2): Linear(in_features=1024, out_features=1, bias=True)
      )
    )
    (skip_connections): ModuleList(
      (0-5): 6 x Linear(in_features=5, out_features=1024, bias=True)
    )
  )
  (prediction_heads): ModuleList(
    (0-4): 5 x Sequential(
      (0): Linear(in_features=1024, out_features=1024, bias=True)
      (1): LayerNorm((1024,), eps=1e-05, elementwise_affine=True)
      (2): ReLU()
      (3): Dropout(p=0.3, inplace=False)
      (4): Linear(in_features=1024, out_features=512, bias=True)
      (5): ReLU()
      (6): Dropout(p=0.3, inplace=False)
      (7): Linear(in_features=512, out_features=1, bias=True)
    )
  )
)
Training parameters: epochs=50, device=cpu
Optimizer: Adam (
Parameter Group 0
    amsgrad: False
    betas: (0.9, 0.999)
    capturable: False
    differentiable: False
    eps: 1e-08
    foreach: None
    fused: None
    lr: 0.0001
    maximize: False
    weight_decay: 1e-05
)
Loss function: MSELoss()
Training batches: 52
Validation batches: 11
…
